model.pt (torch, 174935 bytes, 6 tensors)

module.conv1.bias f4 [128]
0.03360118 0.006271459 0.03571824 -0.0038015973 0.016972922 0.046054192 0.03270816 0.031886764
-0.0015122517 -0.0013372971 0.01444431 0.03597583 0.0066934475 0.004587057 0.033069137 0.03278846
-0.0030972883 0.02815911 0.025539648 0.012567238 0.005344004 0.05233621 0.02704556 0.043380097
0.0040726033 0.037355594 0.0056754528 -0.0051512197 0.015224166 0.024186352 0.03320834 0.0074525466
0.0135641955 0.013818187 0.03378012 -0.010496987 -0.01209558 0.024330234 0.003123124 0.016575275
0.0282891 0.039020363 0.017208092 -0.00242677 0.008774569 0.0054623485 0.0038933589 -0.00903195
0.016234681 0.026055062 -0.0052921087 0.025577107 0.01750477 0.03299281 0.022974886 0.020941352
0.048165165 -0.0110598095 0.022314154 -0.01214602 0.03872577 -0.009630796 0.0339263 0.05077184
0.038114257 -0.01845088 0.038064606 0.010371039 0.018677978 -0.0021426943 -0.00032356326 0.024738356
0.007828965 -0.016147127 0.02268441 0.03943571 -0.00813572 0.043298267 0.009131768 -0.0028423127
-0.0006217083 0.050326563 0.008715266 0.04790338 0.0495303 0.01658635 -0.009630303 0.05621649
-0.01442538 0.027567776 0.038553983 -0.01580214 0.04614222 0.024394494 0.013577204 0.004600159
0.02113237 0.0106888525 0.034205835 0.056065034 0.05321035 0.012454873 0.0060154772 -0.0147014065
0.0187931 0.015679069 0.00707147 0.0141118085 0.018602293 -0.0028541188 0.0034959912 0.030803664
0.039019335 0.040289655 -0.010682109 0.018137058 0.031166947 0.01048141 0.0006195582 -0.017693331
0.047075655 0.05114174 0.020340126 0.011245187 0.035289068 -0.018718766 0.009684427 0.008387993
00000000: 64a1 093d d080 cd3b 4a4d 123d 3824 79bb
00000010: cc0a 8b3c 52a3 3c3d fef8 053d b29b 023d
00000020: bf36 c6ba 3f48 afba d4a7 6c3c 645b 133d
00000030: b554 db3b 064f 963b 8173 073d 314d 063d
00000040: e0fb 4abb efad e63c 8638 d13c d1e6 4d3c
00000050: c11c af3b 7e5e 563d a68e dd3c 54af 313d
00000060: 7973 853b 2e02 193d 26f9 b93b 90cb a8bb
00000070: c86e 793c 7522 c63c 7805 083d 7e34 f43b
00000080: 5c3c 5e3c ad65 623c 065d 0a3d 8efb 2bbc
00000090: 8a2c 46bc 3350 c73c 53ad 4c3b dfc8 873c
000000a0: 8bbe e73c d1d3 1f3d fcf7 8c3c 720a 1fbb
000000b0: 36c3 0f3c 80fd b23b b927 7f3b befa 13bc
000000c0: 98fe 843c 6d71 d53c 6d69 adbb 1587 d13c
000000d0: 2a66 8f3c 7823 073d d435 bc3c 338d ab3c
000000e0: d648 453d 3434 35bc 2ccc b63c 1a00 47bc
000000f0: ea9e 1e3d 7cca 1dbc 4ef6 0a3d 22f6 4f3d
00000100: b21d 1c3d 4d26 97bc a2e9 1b3d 4aeb 293c
00000110: 8f02 993c 726c 0cbb eda3 a9b9 18a8 ca3c
00000120: 0f45 003c fb46 84bc a8d4 b93c 5787 213d
00000130: af4b 05bc 8659 313d 699d 153c 1846 3abb
00000140: 23fa 22ba 3a23 4e3d 7aca 0e3c 5636 443d
00000150: 49e0 4a3d 19e0 873c 6bc8 1dbc 4343 663d
00000160: 6e58 6cbc d1d5 e13c c8ea 1d3d 7d73 81bc
00000170: a0ff 3c3d f6d6 c73c ec72 5e3c eebc 963b
00000180: cb1d ad3c 4c20 2f3c 6b1b 0c3d 73a4 653d
00000190: 19f3 593d 860f 4c3c 7b1d c53b 2bde 70bc
000001a0: fdf3 993c 6471 803c cab7 e73b 3735 673c
000001b0: d663 983c 2b0c 3bbb 001d 653b f757 fc3c
000001c0: bdd2 1f3d c406 253d 0304 2fbc 2b94 943c
000001d0: d351 ff3c 38ba 2b3c d969 223a 9bf1 90bc
000001e0: 67d2 403d 007a 513d 56a0 a63c bc3d 383c
000001f0: 458b 103d 1958 99bc 6eab 1e3c cb6d 093c

module.conv1.fc_self.weight f4 [128, 128]
0.0101019535 0.38831875 0.17653874 -0.33837527 0.14947112 0.00013191423 0.04730599 -0.006095491
-0.2162464 -0.13241434 0.07485019 -0.04353164 0.08159839 0.13562599 -0.09430994 0.09511358
-0.023137795 -0.17523232 0.017224938 0.18917483 0.10401741 0.11381043 -0.23245189 -0.15264283
0.113676555 0.2582987 -0.15660837 0.15357727 0.13452332 0.11624009 -0.3353726 -0.31217664
-0.027786676 0.27154365 -0.07662752 -0.014253844 -0.08632331 0.35437095 0.18036772 -0.18695354
-0.120787896 -0.16289224 -0.22020616 0.23907483 -0.13018063 0.044831693 0.08687216 -0.06928261
0.1596824 0.19944869 0.14360116 0.064918816 0.20200643 0.2831818 0.057003636 0.23386858
0.059026774 0.08872757 0.10601223 -0.058886494 0.040675838 -0.1562285 0.10331525 0.25344664
0.13145652 0.17836125 -0.07536712 -0.09014717 0.16859715 -0.17249894 0.04978193 0.25046292
-0.019958936 -0.08147202 0.040734768 -0.217779 -0.15211794 -0.069133036 0.16623156 -0.15381041
-0.2803012 -0.18080668 0.1504571 0.05691096 -0.061013084 -0.054585427 0.042703044 -0.14136863
-0.10803515 0.12206038 0.17729118 0.013290393 -0.09481923 0.031647112 0.1308732 -0.0042822044
-0.18115722 0.31756607 0.20811959 0.0041749533 0.2570526 0.1157644 0.13528094 -0.06823765
-0.20062448 0.07434168 -0.16496682 0.01590147 -0.039609898 -0.09322204 0.11004014 -0.023667999
0.26185286 -0.068069346 0.08258895 0.06377255 0.094440565 -0.044621114 0.056613065 0.28823888
-0.20599823 -0.00621782 0.06469529 0.072822236 -0.0041471915 -0.21932884 -0.20940647 0.15350688
-0.015964044 -0.21459371 -0.19726983 0.124999225 -0.16549937 -0.16290128 0.033450246 -0.1612767
-0.23488308 -0.03231779 -0.14378099 0.108759224 -0.18007666 0.27100343 -0.071163796 -0.25291514
0.25629097 0.013881055 -0.16262032 0.14365783 0.17219992 -0.071657464 0.117461026 0.15950651
-0.12624398 -0.027666958 -0.016803456 -0.083081745 0.06881253 -0.19457442 0.09390335 -0.0029122417
0.052962106 0.1777255 -0.014644129 0.14917175 -0.13982953 0.066471525 -0.054647475 0.16384523
0.16887927 0.0013240976 -0.03746604 -0.084770836 -0.2209169 0.20986801 -0.0059786043 -0.059118394
-0.16400693 -0.16348423 0.015293328 0.12017183 -0.22682616 -0.22273462 0.101376586 0.12919506
0.035197325 0.0013917115 0.24257672 -0.013537099 -0.019543398 0.10747414 -0.09774199 -0.28347751
0.11401053 0.105021596 0.1341996 -0.101035394 -0.1374097 -0.032216884 0.17297609 0.0917909
0.15395625 -0.06893159 0.045155097 0.11301182 -0.0033380468 0.094045356 -0.11841057 0.035865452
-0.07997561 -0.1447607 0.11051237 0.04672678 0.18365964 0.18672553 0.17161898 0.008186761
0.22416371 0.094760194 0.04769456 0.1885688 -0.08970002 0.178991 0.0018726718 0.017567305
-0.122179136 -0.08853398 0.14383328 -0.088805765 0.18278146 0.0034342604 -0.1992463 0.14759444
0.16272075 0.045800127 0.11566783 0.070596434 -0.17993824 0.1329972 -0.09681224 0.26372433
-0.18920901 -0.076180354 -0.04619284 0.10557682 0.053882036 0.16078822 -0.037994396 0.2749113
0.031523593 -0.035264235 0.18956217 0.086895004 -0.15614265 0.10574069 -0.014507715 -0.22915861
00000000: aa82 253c b7d1 c63e 92c6 343e 863f adbe
00000010: f50e 193e 7552 0a39 edc3 413d afbc c7bb
00000020: b26f 5dbe a097 07be 0e4b 993d 3c4e 32bd
00000030: 0f1d a73d 8ae1 0a3e 9225 c1bd e9ca c23d
00000040: 798b bdbc 1a70 33be 501b 8d3c 0cb7 413e
00000050: 1407 d53d 7115 e93d de07 6ebe 674e 1cbe
00000060: 41cf e83d ba3f 843e f25d 20be 5c43 1d3e
00000070: 7bc0 093e 490f ee3d f5b5 abbe 9ed5 9fbe
00000080: e2a0 e3bc c507 8b3e e4ee 9cbd f488 69bc
00000090: 47ca b0bd 1c70 b53e 51b2 383e c070 3fbe
000000a0: a55f f7bd 39cd 26be b97d 61be 08d0 743e
000000b0: 124e 05be 70a1 373d 08ea b13d 0be4 8dbd
000000c0: c883 233e 473c 4c3e 2f0c 133e 28f4 843d
000000d0: c6da 4e3e 34fd 903e a57c 693d 3f7b 6f3e
000000e0: 0fc6 713d cdb6 b53d f11c d93d f732 71bd
000000f0: b59b 263d 5dfa 1fbe f296 d33d c2c3 813e
00000100: 8a9c 063e 55a4 363e 145a 9abd 149f b8bd
00000110: bba4 2c3e 90a3 30be 23e8 4b3d ad3c 803e
00000120: ec80 a3bc cdda a6bd 80d9 263d 7501 5fbe
00000130: cec4 1bbe 9f95 8dbd 9b38 2a3e 7a80 1dbe
00000140: a483 8fbe 6325 39be 6d11 1a3e 771b 693d
00000150: dbe8 79bd f894 5fbd 63e9 2e3d f0c2 10be
00000160: 8841 ddbd cbfa f93d d28b 353e f3bf 593c
00000170: 9630 c2bd 67a0 013d a003 063e bc51 8cbb
00000180: 4781 39be 0598 a23e 4d1d 553e 0cce 883b
00000190: 669c 833e e315 ed3d 1687 0a3e 2ec0 8bbd
000001a0: 8170 4dbe 7340 983d 10ed 28be cd43 823c
000001b0: fd3d 22bd 32eb bebd ba5c e13d 64e3 c1bc
000001c0: 9411 863e f167 8bbd 6524 a93d 2f9b 823d
000001d0: 0e6a c13d a1c4 36bd 1ae3 673d 0c94 933e
000001e0: 33f1 52be dbbe cbbb f77e 843d d323 953d
000001f0: 2ae5 87bb bd97 60be a66e 56be e830 1d3e
00000200: 07c7 82bc 74be 5bbe 1a01 4abe 98ff ff3d
00000210: ab78 29be 98cf 26be 2003 093d b825 25be
00000220: 3185 70be a95f 04bd 533b 13be 28bd de3d
00000230: 0466 38be f6c0 8a3e 53be 91bd 187e 81be
00000240: 9238 833e 5d6d 633c f185 26be 0a1b 133e
00000250: 2d55 303e 26c1 92bd 688f f03d ad55 233e
00000260: 1a46 01be d1a5 e2bc 67a7 89bc c326 aabd
00000270: 95ed 8c3d 843e 47be 6650 c03d 4fdb 3ebb
00000280: cbee 583d acfd 353e eeed 6fbc 7bc0 183e
00000290: 792f 0fbe 3922 883d 08d6 5fbd 0bc7 273e
000002a0: b0ee 2c3e 588d ad3a fe75 19bd 559c adbd
000002b0: 0a38 62be a4e7 563e 2be8 c3bb 2126 72bd
000002c0: 6ff1 27be 6968 27be de90 7a3c a61c f63d
000002d0: 1e45 68be 8b14 64be 879e cf3d b64b 043e
000002e0: 122b 103d 176a b63a 0866 783e b5ca 5dbc
000002f0: 7a19 a0bc 671b dc3d f42c c8bd f723 91be
00000300: 5a7e e93d 9015 d73d 9f6b 093e a5eb cebd
00000310: 21b5 0cbe daf5 03bd a520 313e defc bb3d
00000320: b5a6 1d3e 012c 8dbd 8df4 383d be72 e73d
00000330: 22c3 5abb da9a c03d 3e81 f2bd a7e7 123d
00000340: 41ca a3bd 263c 14be 4f54 e23d 9464 3f3d
00000350: 4611 3c3e fa34 3f3e e3bc 2f3e c421 063c
00000360: 2c8b 653e a211 c23d 5f5b 433d 2e18 413e
00000370: a5b4 b7bd 6b49 373e 7074 f53a 4fe9 8f3c
00000380: 0e39 fabd 4e51 b5bd 0849 133e ccdf b5bd
00000390: 102b 3b3e 5411 613b 3907 4cbe ff22 173e
000003a0: 45a0 263e ea98 3b3d 41e3 ec3d dd94 903d
000003b0: bb41 38be 6b30 083e 7f45 c6bd e006 873e
000003c0: 02c0 41be 7204 9cbd b434 3dbd a938 d83d
000003d0: 69b3 5c3d aba5 243e 03a0 1bbd 2dc1 8c3e
000003e0: e21e 013d 3b71 10bd 961c 423e 02f6 b13d
000003f0: dce3 1fbe 938e d83d c4b1 6dbc 8ea8 6abe

module.conv1.fc_neigh.weight f4 [128, 128]
-0.07164658 0.0830452 -0.1263699 -0.11500296 0.16781196 -0.28382918 -0.25496876 0.071249366
-0.2736935 -0.2375196 0.041291438 0.10202301 -0.11122079 0.07239552 -0.114947066 0.19086072
-0.067616984 -0.07110548 0.31860745 -0.07981044 -0.22751312 -0.021787066 0.009254719 -0.037013065
-0.012954008 0.08178238 0.120557435 -0.071710214 0.0134185925 -0.16335091 -0.22621654 -0.06480802
-0.30631712 0.047598135 -0.06628282 -0.013287852 0.14137621 -0.015155326 -0.045397665 -0.1951029
-0.20990445 -0.3056049 -0.06563044 0.07074161 -0.06898373 0.0783965 -0.015601466 -0.12214412
-0.041705195 -0.030751785 0.07698985 0.19355756 0.13399576 -0.027387531 -0.2567324 0.2997414
0.25123104 -0.17502858 0.034520227 -0.07796548 0.05802417 -0.2663025 -0.09732738 0.014574657
0.12046178 -0.14337216 -0.10779514 -0.09182219 0.15040268 -0.14576544 -0.23378187 0.10994798
-0.091001265 0.08312085 0.31039688 -0.24605598 -0.1539 -0.048607208 -0.12298495 0.23378196
-0.016732702 -0.27073538 -0.002117363 0.068353444 -0.1717456 0.040563315 0.15029518 -0.38740265
-0.1638562 0.09369851 0.21466883 0.065079115 0.13993222 0.22377466 0.31215346 0.0040347315
-0.1420998 0.092748225 0.3267797 0.11702695 0.15298922 -0.07196968 0.11389088 0.09109557
-0.3349186 0.3422724 0.19907726 -0.12104285 0.26144278 0.011991509 -0.18930233 0.1723893
0.33965972 0.18583852 0.12217435 0.16873646 -0.22347338 -0.09736096 -0.019190641 0.19352944
-0.07118479 -0.024736183 -0.058934066 -0.31621704 -0.1296062 -0.16066447 -0.26364332 0.25546846
-0.054011807 0.039377682 -0.15870059 -0.23576555 -0.1859757 0.12096319 0.099783935 -0.10569982
-0.25929105 -0.06844485 0.11352091 0.122166164 -0.014955813 0.07701555 -0.184528 -0.08356539
-0.10784892 0.11178875 -0.22546607 0.06851023 -0.16574669 0.21987775 0.0759152 -0.0010302789
-0.041896358 0.16644107 0.091035984 -0.13113551 0.29443285 -0.040284976 0.026297592 0.048943006
0.2637325 0.08354582 -0.2088055 0.10197305 0.07659691 0.21990994 -0.084361695 0.099612534
0.1858141 0.043123372 0.061490536 0.057190802 -0.236333 0.018468495 0.10745149 -0.06613704
0.16149391 0.1714954 -0.11973596 -0.01612497 0.09974465 -0.065863356 0.013777595 -0.116062745
0.11933844 0.18135233 0.044530638 -0.23748204 0.04109543 0.10355763 0.20515607 0.04116136
0.07275033 0.06853358 0.21985649 0.1798802 -0.017454723 0.086360246 0.057846446 -0.187764
0.10672735 -0.030005027 -0.0333636 0.089383036 -0.055764534 0.16446789 0.09159529 -0.08082559
-0.13056123 -0.13502903 0.1500949 -0.11029447 -0.10242602 -0.11134645 -0.012338297 0.13660479
0.13436079 0.01982875 0.12536941 0.0038433988 -0.23647282 0.15357488 -0.14981277 -0.27911985
-0.24846114 0.116478495 -0.059323337 -0.15520686 0.24757916 0.16115448 -0.18454055 0.06004546
-0.019599305 0.09970434 -0.055689164 -0.1258155 -0.09321894 -0.1951821 0.05603867 0.030501816
-0.18561254 0.060643572 -0.1394193 0.03643545 0.10475674 0.1300493 0.030501463 0.24144106
-0.069085404 -0.13022316 -0.0753518 -0.018729487 -0.08619444 0.16936962 -0.18275203 -0.037125647
00000000: 71bb 92bd 9a13 aa3d 1c67 01be ac86 ebbd
00000010: e6d6 2b3e 0f52 91be 448b 82be 30eb 913d
00000020: 8e21 8cbe 5738 73be 3621 293d 71f1 d03d
00000030: bac7 e3bd 1a44 943d 5e69 ebbd fe70 433e
00000040: c67a 8abd c09f 91bd 8420 a33e a873 a3bd
00000050: 33f9 68be ca7a b2bc 1ba1 173c 039b 17bd
00000060: 0c3d 54bc 857d a73d d1e6 f63d cedc 92bd
00000070: a8d9 5b3c 7645 27be 4fa5 67be 11ba 84bd
00000080: 99d5 9cbe 43f6 423d 4abf 87bd 4ab5 59bc
00000090: edc4 103e 0b4e 78bc e7f2 39bd 0ec9 47be
000000a0: 31f1 56be 3f78 9cbe 4169 86bd fae0 903d
000000b0: 5847 8dbd 588e a03d 4b9d 7fbc b226 fabd
000000c0: 11d3 2abd 2beb fbbc dbac 9d3d f433 463e
000000d0: 2f36 093e d15b e0bc 6e72 83be b477 993e
000000e0: 5ba1 803e b13a 33be 1565 0d3d 5eac 9fbd
000000f0: c1aa 6d3d cd58 88be 9453 c7bd 8bca 6e3c
00000100: aab4 f63d 27d0 12be b3c3 dcbd 460d bcbd
00000110: 2903 1a3e 8943 15be 8464 6fbe 682c e13d
00000120: df5e babd 443b aa3d 57ec 9e3e 19f6 7bbe
00000130: f697 1dbe 5a18 47bd 89df fbbd 8a64 6f3e
00000140: 0513 89bc d49d 8abe 75c3 0abb e4fc 8b3d
00000150: 14de 2fbe b825 263d fbe6 193e a459 c6be
00000160: ebc9 27be 01e5 bf3d 25d2 5b3e 3348 853d
00000170: 644a 0f3e 2f25 653e 94d2 9f3e c835 843b
00000180: 9c82 11be c8f2 bd3d ab4f a73e d3ab ef3d
00000190: 35a9 1c3e d764 93bd 9f3f e93d 5090 ba3d
000001a0: 737a abbe 543e af3e e9da 4b3e 50e5 f7bd
000001b0: d4db 853e 0978 443c 78d8 41be d286 303e
000001c0: e1e7 ad3e 744c 3e3e 8c36 fa3d 40c9 2c3e
000001d0: 35d6 64be 2f65 c7bd b135 9dbc 952c 463e
000001e0: 55c9 91bd 89a3 cabc d964 71bd 33e7 a1be
000001f0: 7db7 04be 3a85 24be 42fc 86be c3cc 823e
00000200: 7c3b 5dbd 7e4a 213d 6882 22be 866c 71be
00000210: 6a70 3ebe 8dbb f73d 855b cc3d 2679 d8bd
00000220: ccc1 84be d02c 8cbd a77d e83d 4132 fa3d
00000230: 3a09 75bc 54ba 9d3d e8f4 3cbe 5524 abbd
00000240: e5df dcbd 80f1 e43d 94e0 66be 174f 8c3d
00000250: 80b9 29be a227 613e 6e79 9b3d 6c0a 87ba
00000260: 849b 2bbd 876f 2a3e 1371 ba3d 6348 06be
00000270: e7bf 963e dc01 25bd 0c6e d73c 7678 483d
00000280: f207 873e 121a ab3d 1cd1 55be 3fd7 d03d
00000290: d7de 9c3d 1230 613e d3c5 acbd a801 cc3d
000002a0: 0d46 3e3e 22a2 303d 80dd 7b3d e740 6a3d
000002b0: 4701 72be 3e4b 973c 870f dc3d db72 87bd
000002c0: a95e 253e 7d9c 2f3e 2138 f5bd 8318 84bc
000002d0: ec46 cc3d 5ee3 86bd 6cbb 613c 4eb2 edbd
000002e0: b667 f43d 6db4 393e c265 363d 7e2e 73be
000002f0: ae53 283d 0616 d43d 6f14 523e d098 283d
00000300: 20fe 943d 555b 8c3d 0f22 613e 8432 383e
00000310: 35fd 8ebc a4dd b03d 65f0 6c3d 3545 40be
00000320: de93 da3d 1acd f5bc 45a8 08bd 740e b73d
00000330: 5a69 64bd 456a 283e 5096 bb3d e387 a5bd
00000340: d8b1 05be 0d45 0abe 7ab2 193e 11e2 e1bd
00000350: bcc4 d1bd 9c09 e4bd 9226 4abc 20e2 0b3e
00000360: e095 093e e76f a23c d760 003e 88e1 7b3b
00000370: ee25 72be bc42 1d3e 8568 19be cce8 8ebe
00000380: 996c 7ebe 478c ee3d 07fd 72bd 8cee 1ebe
00000390: 6485 7d3e ae05 253e 33f8 3cbe 3af2 753d
000003a0: b98e a0bc ca31 cc3d 521a 64bd c7d5 00be
000003b0: 92e9 bebd d1dd 47be ce88 653d f2de f93c
000003c0: 3711 3ebe 6565 783d efc3 0ebe 573d 153d
000003d0: b48a d63d a52b 053e 34de f93c 533c 773e
000003e0: a67c 8dbd 3859 05be 0b52 9abd 956e 99bc
000003f0: b686 b0bd 3b6f 2d3e 5923 3bbe 1011 18bd

module.conv2.bias f4 [40]
-0.015009789 -0.014678942 0.020942744 0.039456803 0.02216428 0.021526545 -0.0021397984 -0.019336695
0.029328011 0.025529318 0.022618929 -0.015422952 -0.020939978 0.023438262 -0.029413152 -0.0054675704
-0.005263162 -0.019528512 0.007197216 0.005944339 0.026569378 -0.013802329 0.009193249 0.0515953
0.0011201875 -0.020327426 -0.003914853 0.015350858 0.0034077629 -0.012905029 0.0072594015 -0.017534502
-0.013030999 -0.008445683 0.021559 -0.019284297 -0.011911653 0.03166767 0.0029578097 -0.03354801
00000000: 9eeb 75bc f27f 70bc 1e90 ab3c 759d 213d
00000010: dd91 b53c 7058 b03c dc3b 0cbb fd67 9ebc
00000020: 4c41 f03c dc22 d13c 554b b93c 8db0 7cbc
00000030: 518a abbc 9901 c03c daf3 f0bc 4e29 b3bb
00000040: 9a76 acbb 42fa 9fbc a0d6 eb3b bbc8 c23b
00000050: 06a8 d93c 2a23 62bc 489f 163c 9855 533d
00000060: 41d3 923a b485 a6bc 2b48 80bb 2a82 7b3c
00000070: c654 5f3b 9d6f 53bc 46e0 ed3b 84a4 8fbc
00000080: f97f 55bc c35f 0abc 809c b03c 1afa 9dbc
00000090: 1829 43bc f5b5 013d d0d7 413b a369 09bd

module.conv2.fc_self.weight f4 [40, 128]
-0.099704534 -0.119582385 0.03328295 0.03598175 0.16005424 0.039923403 -0.014311599 0.028869962
0.10376497 0.14070047 0.07815704 0.14161927 0.13643122 0.10336006 0.10119989 0.22771639
0.18176974 0.2701263 -0.19465916 -0.016303783 -0.0711917 -0.016557893 -0.101855084 0.27773303
-0.12466761 0.0511446 -0.008754718 0.2174939 -0.2521005 0.20427224 0.2997527 -0.2331209
0.08858399 -0.031924818 -0.026991181 0.08337093 -0.07542434 -0.017565023 0.100446485 -0.060747437
-0.1788298 -0.18310648 -0.06384313 -0.06050786 0.0102347005 -0.018841375 -0.27560863 0.22017336
0.019415734 0.23561148 0.12079 0.16258626 0.047132283 -0.21508601 -0.12905574 0.2917678
-0.29086533 -0.20085149 0.28838617 -0.10119045 0.16689947 0.09614834 0.05523621 0.198382
-0.18288335 0.2471713 0.342077 0.03010405 -0.27081642 0.035979293 0.16702133 0.18586513
-0.0027610152 0.024498783 -0.24928613 -0.28818366 -0.03262471 -0.36314398 -0.007752658 0.05155057
0.08148513 -0.009686636 -0.2477984 -0.26430732 -0.031941917 -0.028638396 0.0614598 -0.14044677
-0.1154596 -0.17917007 0.22640118 -0.072954535 -0.03266727 -0.1351193 -0.049076434 -0.01038837
-0.18503802 0.008537245 -0.2691521 0.25234613 0.20788386 -0.27964562 0.0603518 -0.05737341
0.07146127 -0.13569199 0.35097957 -0.052629773 0.033332963 0.08095081 -0.18574096 -0.36251613
0.07309072 -0.002108741 -0.105268106 -0.18733762 -0.04049925 -0.14464389 -0.16963503 0.21821791
0.2864748 -0.40708357 -0.08751733 -0.23904406 -0.19538379 0.13214597 -0.12516563 0.18998535
-0.18394065 0.1084827 -0.21068065 0.10399323 -0.36693606 0.015034413 -0.08179499 0.335471
0.14316306 0.09309555 0.31775716 0.28206602 0.13416275 0.06773052 -0.111030415 0.04389316
-0.24776173 -0.07762151 0.029531805 0.33540052 -0.20093066 -0.32261258 -0.276815 0.19685891
0.38137013 0.041048333 -0.17378578 0.20469612 0.08795742 0.18357427 0.09147712 -0.18649033
0.06775692 0.082044296 -0.35986382 0.028842213 0.23098326 0.09797 0.09095515 -0.29312626
0.071765535 -0.04300714 0.07882857 -0.13109252 0.047443703 -0.16480489 -0.060259454 -0.20160717
-0.07374978 0.2066193 0.092481 0.042986926 -0.21364468 -0.1423966 -0.01492408 0.2781605
0.05100706 -0.058020417 -0.011032797 -0.055622596 -0.38943735 0.2353514 0.016758973 -0.0028627575
0.22290373 0.23165989 -0.09903099 0.008776797 0.22348472 -0.2591619 0.08829536 0.001691273
-0.27971634 -0.03793618 -0.12099206 0.019667884 0.09221967 0.00094146293 -0.03207981 -0.18129376
0.038884126 0.007925333 0.21846405 0.26267704 -0.00412153 -0.17492522 -0.2607387 0.17818765
0.007982805 0.03553197 -0.14338161 -0.15936173 -0.13048942 0.1947225 0.051151946 -0.032886222
0.004576492 -0.18068478 0.19521755 0.0121554835 0.0071969265 -0.24365583 0.046494868 0.174683
-0.069029845 -0.020979727 -0.051203314 -0.1032688 0.23024856 0.07161453 -0.13329232 0.1297261
-0.09186415 -0.27589238 -0.12019735 0.32680953 -0.09979698 0.03787832 0.031163504 -0.08318249
0.029683387 0.071848124 -0.04852707 -0.21345049 -0.0721107 0.118745506 0.21843293 0.06617917
00000000: e431 ccbd 9ce7 f4bd b453 083d 9961 133d
00000010: 42e5 233e b986 233d 327b 6abc b380 ec3c
00000020: bb82 d43d c913 103e cc10 a03d a404 113e
00000030: a0b4 0b3e 70ae d33d e341 cf3d 7c2e 693e
00000040: d921 3a3e ff4d 8a3e bb54 47be 838f 85bc
00000050: f4cc 91bd 6ba4 87bc 6699 d0bd 0633 8e3e
00000060: bb51 ffbd 007d 513d f36f 0fbc b9b6 5e3e
00000070: 5113 81be be2c 513e 3079 993e 3fb7 6ebe
00000080: 866b b53d 99c3 02bd 9c1c ddbc 61be aa3d
00000090: 1478 9abd 86e4 8fbc e3b6 cd3d 4ed2 78bd
000000a0: 291f 37be 4480 3bbe 30c0 82bd 17d7 77bd
000000b0: 72af 273c 3a59 9abc 931c 8dbe 2075 613e
000000c0: bf0d 9f3c 2344 713e bf60 f73d 037d 263e
000000d0: c80d 413d 823f 5cbe 3027 04be 9762 953e
000000e0: 4dec 94be 03ac 4dbe 5aa7 933e f03c cfbd
000000f0: b2e7 2a3e 6ce9 c43d 5d3f 623d a724 4b3e
00000100: c645 3bbe 791a 7d3e b724 af3e c59c f63c
00000110: 73a8 8abe 065f 133d a407 2b3e 6e53 3e3e
00000120: 26f2 34bb acb1 c83c dd44 7fbe cf8c 93be
00000130: 7da1 05bd 02ee b9be 020a febb b126 533d
00000140: ade1 a63d b2b4 1ebc ddbe 7dbe 4a53 87be
00000150: 87d5 02bd 129b eabc 45bd 7b3d 47d1 0fbe
00000160: 1576 ecbd 5c78 37be b6d5 673e 3069 95bd
00000170: 1ece 05bd b75c 0abe 5f04 49bd fb33 2abc
00000180: 9b7a 3dbe cddf 0b3c 4ece 89be 8333 813e
00000190: 82df 543e b62d 8fbe 7333 773d 6100 6bbd
000001a0: 495a 923d d7f2 0abe 98b3 b33e 5192 57bd
000001b0: 2588 083d 8ac9 a53d e132 3ebe b79b b9be
000001c0: 96b0 953d ce32 0abb ce96 d7bd 6fd5 3fbe
000001d0: 8be2 25bd 871d 14be ceb4 2dbe 8474 5f3e
000001e0: d3ac 923e 426d d0be 493c b3bd f7c7 74be
000001f0: b012 48be 4651 073e 6b2b 00be 858b 423e
00000200: f05a 3cbe 2e2c de3d abbc 57be 67fa d43d
00000210: 0bdf bbbe e652 763c 2284 a7bd dbc2 ab3e
00000220: 5699 123e e1a8 be3d 11b1 a23e f56a 903e
00000230: f661 093e 4db6 8a3d ea63 e3bd 50c9 333d
00000240: 40b5 7dbe 07f8 9ebd afec f13c 9eb9 ab3e
00000250: c4c0 4dbe 7a2d a5be b2ba 8dbe 6295 493e
00000260: f242 c33e 4c22 283d e6f4 31be dc9b 513e
00000270: 0523 b43d e5fa 3b3e 5b58 bb3d 52f7 3ebe
00000280: 24c4 8a3d d706 a83d 1240 b8be 8146 ec3c
00000290: e086 6c3e 7fa4 c83d b246 ba3d a514 96be
000002a0: cff9 923d 4128 30bd e070 a13d 1e3d 06be
000002b0: 5454 423d 9dc2 28be 9ed2 76bd 1c72 4ebe
000002c0: 200a 97bd 0394 533e ae66 bd3d 0f13 303d
000002d0: acc5 5abe 6ad0 11be 2184 74bc 0e6b 8e3e
000002e0: c7ec 503d d1a6 6dbd e8c2 34bc 85d4 63bd
000002f0: 5564 c7be f5ff 703e 1d4a 893c 1a9d 3bbb
00000300: e040 643e 4038 6d3e c2d0 cabd 8ecc 0f3c
00000310: 2ed9 643e deb0 84be 33d4 b43d b4ad dd3a
00000320: fb36 8fbe f862 1bbd afca f7bd 8b1e a13c
00000330: abdd bc3d 82cc 763a 1e66 03bd 12a5 39be
00000340: f644 1f3d 42d9 013c 0ab5 5f3e 9b7d 863e
00000350: e60d 87bb 991f 33be 8b7f 85be d376 363e
00000360: 50ca 023c f989 113d a1d2 12be b92f 23be
00000370: 059f 05be 5665 473e b484 513d b4b3 06bd
00000380: 66f6 953b 6e05 39be 1ce7 473e cb27 473c
00000390: 32d4 eb3b ea80 79be 6771 3e3d 1ae0 323e
000003a0: 855f 8dbd addd abbc 91ba 51bd 987e d3bd
000003b0: 47c6 6b3e a4aa 923d c87d 08be ebd6 043e
000003c0: 4523 bcbd c441 8dbe 072a f6bd 9453 a73e
000003d0: 5c62 ccbd 4c26 1b3d 9b4a ff3c 955b aabd
000003e0: 932a f33c 1c25 933d 52c4 46bd c492 5abe
000003f0: c6ae 93bd d830 f33d e2ac 5f3e f288 873d

module.conv2.fc_neigh.weight f4 [40, 128]
-0.16713618 -0.26569706 0.039223995 0.14843129 0.1638279 -0.016365396 0.017470792 -0.023407565
-0.013737325 0.14585033 0.18004774 -0.0020160307 0.038438074 -0.09669486 -0.066921055 -0.17909978
-0.059731565 -0.28395015 -0.17932318 -0.062117603 0.18757452 -0.27259263 -0.10267226 -0.149805
0.31268093 0.06263473 0.17026559 0.106804006 0.04873067 -0.046308793 0.03069052 -0.0046222294
-0.19219539 -0.24683905 -0.019296972 -0.10827189 -0.2547217 -0.2652861 -0.10128108 0.020139666
0.083000526 0.10215519 -0.119872175 0.11686747 0.097813256 -0.07133149 -0.13823701 -0.07429823
-0.15655696 0.2888633 0.079972856 -0.2796109 0.24132514 0.17990462 0.004127179 -0.1904348
-0.053364772 0.05013185 0.29724136 -0.17334318 -0.0597816 -0.13813686 -0.36356404 -0.16593611
-0.29099244 0.1268256 0.14151962 0.0846728 -0.22006264 0.1113871 -0.17691006 0.109397754
0.079034485 -0.0794357 -0.0078022783 -0.2223741 0.04750494 0.052020922 -0.10779813 0.21552058
0.12158153 -0.00029295214 -0.16923301 -0.2087183 0.18354133 -0.06739137 -0.09637016 0.2564184
-0.26391286 -0.32665437 0.25215417 -0.08290785 0.032054115 0.2259683 0.21493135 -0.032954473
0.023240495 -0.010204789 -0.20311111 0.12737137 0.071595706 -0.014756645 0.064901635 0.20305112
-0.011126686 0.3095612 -0.13014098 -0.16153875 0.16647924 0.05379803 0.043038055 -0.39958197
-0.24914469 -0.03592052 0.118476294 -0.045640923 0.103502646 -0.19603223 0.21437213 -0.023453357
0.2052174 -0.34317198 -0.16253008 0.18417764 -0.21686235 0.032517105 0.083081886 0.21081716
0.019502314 -0.28814587 -0.2420713 -0.045034207 -0.22850068 -0.23984277 0.020242741 0.356771
0.03386542 0.20483124 0.25345573 0.10323363 0.032404047 0.24631661 -0.081152014 -0.10451595
0.07466173 -0.04259126 0.011529033 -0.14775766 0.007817808 -0.44204238 -0.22888894 0.14792912
0.073129326 -0.16045511 0.16958374 -0.12014593 -0.110882625 -0.054636233 0.0908322 0.099669375
0.10988419 0.21995625 -0.060810793 -0.10710026 0.15452293 -0.26752284 -0.23804212 0.16848353
0.06500863 -0.21361002 0.1219686 0.14957425 -0.17978843 -0.14382382 0.19808394 0.25219646
0.009380343 0.086904034 -0.055072356 0.2830292 -0.0526183 -0.092584915 -0.13010727 0.24361756
-0.33412522 0.062573835 -0.09084249 0.07113895 -0.13266948 -0.1806698 -0.0014443531 -0.31043133
0.08610969 -0.10634669 -0.28774095 -0.08623324 -0.12620215 0.02482034 0.21959616 0.04877304
0.07704443 -0.0011329489 -0.015012442 -0.11235722 -0.2490465 -0.23142146 -0.097756505 0.115528665
0.115468696 -0.10622155 0.17557216 0.019293023 -0.14020456 0.14112881 -0.07578727 0.10587192
-0.013113496 0.18742695 0.14795013 0.15744533 -0.33091554 0.0046167835 0.31642884 -0.10443096
-0.19258411 0.029889388 0.28997067 0.013763064 0.13552046 -0.008542653 0.13824067 -0.027101563
-0.00031427643 0.23652515 0.09261259 0.06950909 0.15136012 0.27760923 -0.06813676 0.063893035
-0.11418445 -0.31379196 0.23558971 0.038643148 -0.37768424 -0.12359984 -0.21429652 0.19669089
-0.14974852 0.045970425 -0.30534208 -0.311353 0.27511033 0.25498557 -0.07762934 0.031709842
00000000: bf25 2bbe 7209 88be 57a9 203d 5ffe 173e
00000010: 80c2 273e b910 86bc e81e 8f3c 39c1 bfbc
00000020: 8412 61bc ca59 153e 6f5e 383e 621f 04bb
00000030: 3e71 1d3d f407 c6bd e80d 89bd ef65 37be
00000040: 16a9 74bd ea61 91be 7fa0 37be 076f 7ebd
00000050: 8913 403e 4391 8bbe d545 d2bd 7b66 19be
00000060: b717 a03e a346 803d 1a5a 2e3e 0fbc da3d
00000070: d099 473d 4aae 3dbd af6a fb3c 1276 97bb
00000080: dece 44be 60c3 7cbe af14 9ebc a7bd ddbd
00000090: e26a 82be 94d3 87be 746c cfbd f1fb a43c
000000a0: 2efc a93d be36 d13d 8b7f f5bd 3658 ef3d
000000b0: 5152 c83d 3f16 92bd 018e 0dbe ac29 98bd
000000c0: 7850 20be e4e5 933e cfc8 a33d 2929 8fbe
000000d0: f01d 773e eb38 383e 493d 873b 5701 43be
000000e0: 0595 5abd 0e57 4d3d 0530 983e e080 31be
000000f0: 8ddd 74bd c073 0dbe 1125 babe 28eb 29be
00000100: f6fc 94be 92de 013e 85ea 103e ef68 ad3d
00000110: 1a58 61be eb1e e43d e927 35be ee0b e03d
00000120: d5dc a13d 2faf a2bd 41aa ffbb 09b6 63be
00000130: 8a94 423d e413 553d 44c5 dcbd 6db1 5c3e
00000140: bdff f83d 5f97 99b9 6b4b 2dbe 40ba 55be
00000150: 42f2 3b3e 7d04 8abd b85d c5bd 4649 833e
00000160: 961f 87be 3e3f a7be 5a1a 813e 97cb a9bd
00000170: 2d4b 033d 3c64 673e f716 5c3e 45fb 06bd
00000180: da62 be3c fd31 27bc 5cfc 4fbe a46d 023e
00000190: c5a0 923d dbc5 71bc 26eb 843d a2ec 4f3e
000001a0: b44c 36bc ce7e 9e3e ad43 05be 6a6a 25be
000001b0: 8979 2a3e 535b 5c3d ac48 303d 0296 ccbe
000001c0: c91f 7fbe 6521 13bd b3a3 f23d faf1 3abd
000001d0: 32f9 d33d acbc 48be 5e84 5b3e 4121 c0bc
000001e0: 8324 523e 3db4 afbe 496e 26be 1099 3c3e
000001f0: 2a11 5ebe a830 053d d626 aa3d 74e0 573e
00000200: 51c3 9f3c db87 93be 8ae1 77be ca75 38bd
00000210: 15fc 69be 5899 75be 1bd4 a53c b0aa b63e
00000220: 77b6 0a3d 48bf 513e f3c4 813e 276c d33d
00000230: 1bba 043d 6c3a 7c3e 0733 a6bd 750c d6bd
00000240: 40e8 983d 2c74 2ebd 45e4 3c3c c94d 17be
00000250: 4316 003c 6153 e2be dd61 6abe bb7a 173e
00000260: d4c4 953d 584e 24be 5ca7 2d3e 120f f6bd
00000270: 6e16 e3bd 3eca 5fbd 3c06 ba3d 751f cc3d
00000280: f60a e13d 363c 613e bd14 79bd 6257 dbbd
00000290: 423b 1e3e c1f8 88be 50c1 73be f286 2c3e
000002a0: 3f23 853d 96bc 5abe acca f93d fe29 193e
000002b0: 751a 38be 8d46 13be 84d6 4a3e e51f 813e
000002c0: 03b0 193c befa b13d 8d93 61bd 34e9 903e
000002d0: 4986 57bd 299d bdbd d73a 05be e276 793e
000002e0: 7612 abbe b626 803d a10b babd 4cb1 913d
000002f0: 82da 07be 8101 39be 7350 bdba dbf0 9ebe
00000300: 475a b03d 4bcc d9bd c852 93be 0e9b b0bd
00000310: 233b 01be 0754 cb3c d1dd 603e 3dc6 473d
00000320: 78c9 9d3d 757f 94ba bff6 75bc 8b1b e6bd
00000330: 0c06 7fbe bff9 6cbe 9034 c8bd 4b9a ec3d
00000340: da7a ec3d af8a d9bd 30c9 333e 670c 9e3c
00000350: c991 0fbe 1284 103e 5b36 9bbd 61d3 d83d
00000360: fdd9 56bc daec 3f3e 3d80 173e 5939 213e
00000370: c36d a9be 6348 973b f602 a23e e6df d5bd
00000380: c534 45be 97da f43c 0977 943e 797e 613c
00000390: e0c5 0a3e 7cf6 0bbc f68e 0d3e 1904 debc
000003a0: 78c5 a4b9 a633 723e abab bd3d c85a 8e3d
000003b0: 26fe 1a3e cc22 8e3e 498b 8bbd 5ada 823d
000003c0: 89d9 e9bd 57a9 a0be 6e3e 713e 4748 1e3d
000003d0: d45f c1be ea21 fdbd 8c70 5bbe 5669 493e
000003e0: ad57 19be 7c4b 3c3d cc55 9cbe a969 9fbe
000003f0: 43db 8c3e 788d 823e 22fc 9ebd 2ee2 013d
